…
  desc: null
  value: <function get_schedule_fn.<locals>.<lambda> at 0x2a66f8dc0>
rollout_buffer:
  desc: null
  value: <stable_baselines3.common.buffers.RolloutBuffer object at 0x2a665ac20>
policy:
  desc: null
  value: "ActorCriticPolicy(\n  (features_extractor): CustomHeteroGNN(\n    (model):\
    \ HeteroGAT(\n      (layers): ModuleList(\n        (0): ModuleDict(\n        \
    \  (obj): GATConv(7, 64, heads=1)\n        )\n        (1): ModuleDict(\n     \
    \     (obj): GATConv(64, 64, heads=1)\n        )\n      )\n      (global_pool):\
    \ GlobalAttention(gate_nn=Sequential(\n        (0): Linear(in_features=64, out_features=64,\
    \ bias=True)\n        (1): ReLU()\n        (2): Linear(in_features=64, out_features=1,\
    \ bias=True)\n      ), nn=None)\n    )\n  )\n  (pi_features_extractor): CustomHeteroGNN(\n\
    \    (model): HeteroGAT(\n      (layers): ModuleList(\n        (0): ModuleDict(\n\
    \          (obj): GATConv(7, 64, heads=1)\n        )\n        (1): ModuleDict(\n\
    \          (obj): GATConv(64, 64, heads=1)\n        )\n      )\n      (global_pool):\
    \ GlobalAttention(gate_nn=Sequential(\n        (0): Linear(in_features=64, out_features=64,\
    \ bias=True)\n        (1): ReLU()\n        (2): Linear(in_features=64, out_features=1,\
    \ bias=True)\n      ), nn=None)\n    )\n  )\n  (vf_features_extractor): CustomHeteroGNN(\n\
    \    (model): HeteroGAT(\n      (layers): ModuleList(\n        (0): ModuleDict(\n\
    \          (obj): GATConv(7, 64, heads=1)\n        )\n        (1): ModuleDict(\n\
    \          (obj): GATConv(64, 64, heads=1)\n        )\n      )\n      (global_pool):\
    \ GlobalAttention(gate_nn=Sequential(\n        (0): Linear(in_features=64, out_features=64,\
    \ bias=True)\n        (1): ReLU()\n        (2): Linear(in_features=64, out_features=1,\
    \ bias=True)\n      ), nn=None)\n    )\n  )\n  (mlp_extractor): MlpExtractor(\n\
    \    (policy_net): Sequential(\n      (0): Linear(in_features=64, out_features=64,\
    \ bias=True)\n      (1): Tanh()\n      (2): Linear(in_features=64, out_features=64,\
    \ bias=True)\n      (3): Tanh()\n    )\n    (value_net): Sequential(\n      (0):\
    \ Linear(in_features=64, out_features=64, bias=True)\n      (1): Tanh()\n    \
    \  (2): Linear(in_features=64, out_features=64, bias=True)\n      (3): Tanh()\n\
    \    )\n  )\n  (action_net): Linear(in_features=64, out_features=3, bias=True)\n\
    \  (value_net): Linear(in_features=64, out_features=1, bias=True)\n)"
_logger:
  desc: null
  value: <stable_baselines3.common.logger.Logger object at 0x2a665bfd0>
