…
_grad_norm': 0.5, 'rollout_buffer_class': "<class 'stable_baselines3.common.buffers.RolloutBuffer'>", 'rollout_buffer_kwargs': '{}', 'batch_size': 64, 'n_epochs': 10, 'clip_range': '<function get_schedule_fn.<locals>.<lambda> at 0x1557d2710>', 'clip_range_vf': 'None', 'normalize_advantage': 'True', 'target_kl': 'None', 'lr_schedule': '<function get_schedule_fn.<locals>.<lambda> at 0x1557d2830>', 'rollout_buffer': '<stable_baselines3.common.buffers.RolloutBuffer object at 0x1557d66b0>', 'policy': 'CustomActorCriticPolicyCNN(\n  (features_extractor): CustomCNN(\n    (cnn): CNNgame(\n      (conv1): Conv2d(4, 16, kernel_size=(5, 5), stride=(1, 1), padding=(2, 2))\n      (pool): MaxPool2d(kernel_size=2, stride=2, padding=0, dilation=1, ceil_mode=False)\n      (conv2): Conv2d(16, 32, kernel_size=(5, 5), stride=(1, 1), padding=(2, 2))\n      (fc1): Linear(in_features=960000, out_features=256, bias=True)\n      (fc_policy): Linear(in_features=256, out_features=3, bias=True)\n      (fc_value): Linear(in_features=256, out_features=1, bias=True)\n    )\n  )\n  (pi_features_extractor): FlattenExtractor(\n    (flatten): Flatten(start_dim=1, end_dim=-1)\n  )\n  (vf_features_extractor): FlattenExtractor(\n    (flatten): Flatten(start_dim=1, end_dim=-1)\n  )\n  (mlp_extractor): MlpExtractor(\n    (policy_net): Sequential(\n      (0): Linear(in_features=1920000, out_features=64, bias=True)\n      (1): Tanh()\n      (2): Linear(in_features=64, out_features=64, bias=True)\n      (3): Tanh()\n    )\n    (value_net): Sequential(\n      (0): Linear(in_features=1920000, out_features=64, bias=True)\n      (1): Tanh()\n      (2): Linear(in_features=64, out_features=64, bias=True)\n      (3): Tanh()\n    )\n  )\n  (action_net): Linear(in_features=64, out_features=3, bias=True)\n  (value_net): Linear(in_features=64, out_features=1, bias=True)\n)', '_logger': '<stable_baselines3.common.logger.Logger object at 0x1557d58d0>'}
2024-06-04 11:10:57,970 WARNING MsgRouterThr:68857 [router.py:message_loop():77] message_loop has been closed
