…
ss': "<class 'stable_baselines3.common.buffers.RolloutBuffer'>", 'rollout_buffer_kwargs': '{}', 'batch_size': 64, 'n_epochs': 10, 'clip_range': '<function get_schedule_fn.<locals>.<lambda> at 0x16f678790>', 'clip_range_vf': 'None', 'normalize_advantage': 'True', 'target_kl': 'None', 'lr_schedule': '<function get_schedule_fn.<locals>.<lambda> at 0x16f814700>', 'rollout_buffer': '<stable_baselines3.common.buffers.RolloutBuffer object at 0x16f5fd5d0>', 'policy': 'ActorCriticPolicy(\n  (features_extractor): CustomHeteroGNN(\n    (model): HeteroGNN(\n      (linear_layers): ModuleDict(\n        (obj): Linear(in_features=7, out_features=64, bias=True)\n        (atom): Linear(in_features=14, out_features=128, bias=True)\n      )\n      (obj_to_atom): FanOutMP(\n        (update_mlp_by_dst): ModuleDict(\n          (atom): MLP(128, 128, 128)\n        )\n        (simple): SimpleConv()\n      )\n      (obj_update): MLP(128, 256, 64)\n      (atom_to_obj): FanInMP(\n        (select): SelectMP()\n      )\n    )\n  )\n  (pi_features_extractor): CustomHeteroGNN(\n    (model): HeteroGNN(\n      (linear_layers): ModuleDict(\n        (obj): Linear(in_features=7, out_features=64, bias=True)\n        (atom): Linear(in_features=14, out_features=128, bias=True)\n      )\n      (obj_to_atom): FanOutMP(\n        (update_mlp_by_dst): ModuleDict(\n          (atom): MLP(128, 128, 128)\n        )\n        (simple): SimpleConv()\n      )\n      (obj_update): MLP(128, 256, 64)\n      (atom_to_obj): FanInMP(\n        (select): SelectMP()\n      )\n    )\n  )\n  (vf_features_extractor): CustomHeteroGNN(\n    (model): HeteroGNN(\n      (linear_layers): ModuleDict(\n        (obj): Linear(in_features=7, out_features=64, bias=True)\n        (atom): Linear(in_features=14, out_features=128, bias=True)\n      )\n      (obj_to_atom): FanOutMP(\n        (update_mlp_by_dst): ModuleDict(\n          (atom): MLP(128, 128, 128)\n        )\n        (simple): SimpleConv()\n      )\n      (obj_update): MLP(128, 256, 64)\n      (atom_to_obj): FanInMP(\n        (select): SelectMP()\n      )\n    )\n  )\n  (mlp_extractor): MlpExtractor(\n    (policy_net): Sequential(\n      (0): Linear(in_features=64, out_features=64, bias=True)\n      (1): Tanh()\n      (2): Linear(in_features=64, out_features=64, bias=True)\n      (3): Tanh()\n    )\n    (value_net): Sequential(\n      (0): Linear(in_features=64, out_features=64, bias=True)\n      (1): Tanh()\n      (2): Linear(in_features=64, out_features=64, bias=True)\n      (3): Tanh()\n    )\n  )\n  (action_net): Linear(in_features=64, out_features=3, bias=True)\n  (value_net): Linear(in_features=64, out_features=1, bias=True)\n)', '_logger': '<stable_baselines3.common.logger.Logger object at 0x16f86f3d0>'}
2024-07-23 19:09:56,838 WARNING MsgRouterThr:80181 [router.py:message_loop():77] message_loop has been closed
