…
+    \ 64, 64)\n        (ChickenOnLane): MLP(14, 128, 128)\n        (CarOnLane): MLP(14,\
+    \ 128, 128)\n        (LaneNextToLane): MLP(14, 128, 128)\n      )\n      (obj_to_atom):\
+    \ FanOutMP(\n        (update_mlp_by_dst): ModuleDict(\n          (ChickenOnLane):\
+    \ MLP(128, 128, 128)\n          (CarOnLane): MLP(128, 128, 128)\n          (LaneNextToLane):\
+    \ MLP(128, 128, 128)\n        )\n        (simple): SimpleConv()\n      )\n   \
+    \   (obj_update): MLP(128, 128, 64)\n      (atom_to_obj): FanInMP(\n        (select):\
+    \ SelectMP()\n      )\n    )\n  )\n  (mlp_extractor): MlpExtractor(\n    (policy_net):\
+    \ Sequential(\n      (0): Linear(in_features=64, out_features=64, bias=True)\n\
+    \      (1): Tanh()\n      (2): Linear(in_features=64, out_features=64, bias=True)\n\
+    \      (3): Tanh()\n    )\n    (value_net): Sequential(\n      (0): Linear(in_features=64,\
+    \ out_features=64, bias=True)\n      (1): Tanh()\n      (2): Linear(in_features=64,\
+    \ out_features=64, bias=True)\n      (3): Tanh()\n    )\n  )\n  (action_net):\
+    \ Linear(in_features=64, out_features=3, bias=True)\n  (value_net): Linear(in_features=64,\
+    \ out_features=1, bias=True)\n)"
+_logger:
+  desc: null
+  value: <stable_baselines3.common.logger.Logger object at 0x17ff5db10>
diff --git a/wandb/run-20240729_231335-y13kgdr9/files/diff.patch b/wandb/run-20240729_231335-y13kgdr9/files/diff.patch
new file mode 100644
index 0000000..24dea74
--- /dev/null
+++ b/wandb/run-20240729_231335-y13kgdr9/files/diff.patch
@@ -0,0 +1,6624 @@
…
4)\n        (ChickenOnLane): MLP(14, 128, 128)\n        (CarOnLane): MLP(14, 128, 128)\n        (LaneNextToLane): MLP(14, 128, 128)\n      )\n      (obj_to_atom): FanOutMP(\n        (update_mlp_by_dst): ModuleDict(\n          (ChickenOnLane): MLP(128, 128, 128)\n          (CarOnLane): MLP(128, 128, 128)\n          (LaneNextToLane): MLP(128, 128, 128)\n        )\n        (simple): SimpleConv()\n      )\n      (obj_update): MLP(128, 128, 64)\n      (atom_to_obj): FanInMP(\n        (select): SelectMP()\n      )\n    )\n  )\n  (mlp_extractor): MlpExtractor(\n    (policy_net): Sequential(\n      (0): Linear(in_features=64, out_features=64, bias=True)\n      (1): Tanh()\n      (2): Linear(in_features=64, out_features=64, bias=True)\n      (3): Tanh()\n    )\n    (value_net): Sequential(\n      (0): Linear(in_features=64, out_features=64, bias=True)\n      (1): Tanh()\n      (2): Linear(in_features=64, out_features=64, bias=True)\n      (3): Tanh()\n    )\n  )\n  (action_net): Linear(in_features=64, out_features=3, bias=True)\n  (value_net): Linear(in_features=64, out_features=1, bias=True)\n)', '_logger': '<stable_baselines3.common.logger.Logger object at 0x17ff5db10>'}
+2024-07-29 23:13:56,114 WARNING MsgRouterThr:54425 [router.py:message_loop():77] message_loop has been closed
diff --git a/wandb/run-20240729_231335-y13kgdr9/run-y13kgdr9.wandb b/wandb/run-20240729_231335-y13kgdr9/run-y13kgdr9.wandb
new file mode 100644
index 0000000..a7508e1
…
