…
x_grad_norm': 0.5, 'rollout_buffer_class': "<class 'stable_baselines3.common.buffers.RolloutBuffer'>", 'rollout_buffer_kwargs': '{}', 'batch_size': 64, 'n_epochs': 10, 'clip_range': '<function get_schedule_fn.<locals>.<lambda> at 0x16ffd6950>', 'clip_range_vf': 'None', 'normalize_advantage': 'True', 'target_kl': 'None', 'lr_schedule': '<function get_schedule_fn.<locals>.<lambda> at 0x16ffd6a70>', 'rollout_buffer': '<stable_baselines3.common.buffers.RolloutBuffer object at 0x16ffdbd30>', 'policy': 'CustomActorCriticPolicyCNN(\n  (features_extractor): CustomCNN(\n    (cnn): Sequential(\n      (0): Conv2d(4, 32, kernel_size=(8, 8), stride=(4, 4))\n      (1): ReLU()\n      (2): MaxPool2d(kernel_size=2, stride=2, padding=0, dilation=1, ceil_mode=False)\n      (3): Conv2d(32, 64, kernel_size=(4, 4), stride=(2, 2))\n      (4): ReLU()\n      (5): MaxPool2d(kernel_size=2, stride=2, padding=0, dilation=1, ceil_mode=False)\n      (6): Conv2d(64, 128, kernel_size=(4, 4), stride=(2, 2))\n      (7): ReLU()\n      (8): MaxPool2d(kernel_size=2, stride=2, padding=0, dilation=1, ceil_mode=False)\n      (9): Flatten(start_dim=1, end_dim=-1)\n    )\n    (adjust_to_features_dim): Linear(in_features=2560, out_features=64, bias=True)\n  )\n  (pi_features_extractor): FlattenExtractor(\n    (flatten): Flatten(start_dim=1, end_dim=-1)\n  )\n  (vf_features_extractor): FlattenExtractor(\n    (flatten): Flatten(start_dim=1, end_dim=-1)\n  )\n  (mlp_extractor): MlpExtractor(\n    (policy_net): Sequential(\n      (0): Linear(in_features=1920000, out_features=64, bias=True)\n      (1): Tanh()\n      (2): Linear(in_features=64, out_features=64, bias=True)\n      (3): Tanh()\n    )\n    (value_net): Sequential(\n      (0): Linear(in_features=1920000, out_features=64, bias=True)\n      (1): Tanh()\n      (2): Linear(in_features=64, out_features=64, bias=True)\n      (3): Tanh()\n    )\n  )\n  (action_net): Linear(in_features=64, out_features=3, bias=True)\n  (value_net): Sequential(\n    (0): Linear(in_features=64, out_features=64, bias=True)\n    (1): ReLU()\n    (2): Linear(in_features=64, out_features=1, bias=True)\n  )\n  (policy_net): Sequential(\n    (0): Linear(in_features=64, out_features=64, bias=True)\n    (1): ReLU()\n    (2): Linear(in_features=64, out_features=3, bias=True)\n  )\n)', '_logger': '<stable_baselines3.common.logger.Logger object at 0x16ffd9660>'}
2024-06-04 15:22:25,166 WARNING MsgRouterThr:99214 [router.py:message_loop():77] message_loop has been closed
